…
L_{out}$.\n        *   The vertical position advances by the block's height.\n\n3.  **Shape Parameters (Inferred from Examples)**:\n    *   **Shape S1 (Color 1)**: $W=3, H=1$. $L_{in}=0, L_{out}=2$. (Shift +2)\n    *   **Shape U (Color 2)**: $W=2, H=1$. $L_{in}=1, L_{out}=0$. (Shift -1)\n    *   **Shape Y (Color 6)**: $W=1, H=2$. $L_{in}=0, L_{out}=0$. (Shift 0)\n    *   **Shape S3 (Color 3)**: $W=4, H=1$. Based on Example 1's Color 3 block, $L_{in}=3, L_{out}=0$. (Shift -3)\n\n4.  **Applying to Test Input**:\n    *   **Initial State**: $X=2$, Row=1.\n    *   **Sequence**:\n        1.  **Left (0,0) - S1 (1)**: $X=2 \\to Pos=2$ (Cols 2-4). $X_{new}=4$. Row 1.\n        2.  **Left (4,0) - U (2)**: $X=4 \\to Pos=3$ (Cols 3-4). $X_{new}=3$. Row 2.\n        3.  **Left (8,0) - Y (6)**: $X=3 \\to Pos=3$ (Col 3). $X_{new}=3$. Rows 3-4.\n        4.  **Left (12,0) - S3 (3)**: $X=3 \\to Pos=0$ (Cols 0-3). $X_{new}=0$. Row 5.\n        5.  **Left (16,0) - Y (6)**: $X=0 \\to Pos=0$ (Col 0). $X_{new}=0$. Rows 6-7.\n        6.  **Right (0,4) - S1 (1)**: $X=0 \\to Pos=0$ (Cols 0-2). $X_{new}=2$. Row 8.\n        7.  **Right (4,4) - S1 (1)**: $X=2 \\to Pos=2$ (Cols 2-4). $X_{new}=4$. Row 9.\n        8.  **Right (8,4) - Y (6)**: $X=4 \\to Pos=4$ (Col 4). $X_{new}=4$. Rows 10-11.\n        9.  **Right (12,4) - S3 (3)**: $X=4 \\to Pos=1$ (Cols 1-4). $X_{new}=1$. Row 12.\n        10. **Right (16,4) - U (2)**: $X=1 \\to Pos=0$ (Cols 0-1). $X_{new}=0$. Row 13.\n\n    *   Remaining rows (14-18) are filled with 0. Row 0 contains the initial '5' at column 2.\n\n**Final Output Grid Generation:**\n\n0,0,5,0,0,0,0\n0,0,1,1,1,0,0\n0,0,0,2,2,0,0\n0,0,0,6,0,0,0\n0,0,0,6,0,0,0\n3,3,3,3,0,0,0\n6,0,0,0,0,0,0\n6,0,0,0,0,0,0\n1,1,1,0,0,0,0\n0,0,1,1,1,0,0\n0,0,0,0,6,0,0\n0,0,0,0,6,0,0\n0,3,3,3,3,0,0\n2,2,0,0,0,0,0\n0,0,0,0,0,0,0\n0,0,0,0,0,0,0\n0,0,0,0,0,0,0\n0,0,0,0,0,0,0\n0,0,0,0,0,0,0",
…
